4615.pth (torch, 205447 bytes, 10 tensors)

weight f4 [50, 504]
0	0xbc9d7c53	-0.019224321
1	0x3b7adfce	0.003828037
2	0xbbc8df35	-0.006130124
3	0x3bbd8378	0.0057834946
4	0xbd329765	-0.043601412
5	0xbc9a60e1	-0.018845024
6	0xbd48ca89	-0.049021278
7	0xbd40f688	-0.04711011
8	0x3d043e64	0.032286063
9	0x3cc6e773	0.024280285
10	0x3cc78827	0.024356915
11	0x3c6a5f62	0.014304968
12	0xbd17632c	-0.036959812
13	0xbce8e5ad	-0.02842983
14	0x3cc3c886	0.023899328
15	0xbd514f38	-0.05110094
16	0x3cc2f147	0.02379669
17	0xbcd80511	-0.026369603
18	0x3ce8ee54	0.028433956
19	0x3d0d0d26	0.034436367
20	0xbd5ce0b4	-0.05392523
21	0xbd53992c	-0.051659748
22	0xbca13d51	-0.019682558
23	0x3cca276a	0.024676997
24	0xbcc55d5e	-0.024092373
25	0xbd4026be	-0.046911947
26	0xbd0ef838	-0.03490469
27	0xbca6e78c	-0.020374082
28	0xbc43b680	-0.011945367
29	0xbcb69c81	-0.022291424
30	0xbd29597d	-0.04134511
31	0x3c650399	0.0139779085
32	0x3ccbc27e	0.024873015
33	0x3cd070ff	0.025444506
34	0x3b37f652	0.0028070402
35	0xbc13a4fa	-0.009011501
36	0x3c6c1073	0.014408219
37	0x3c9404d3	0.018068707
38	0xbd2e1105	-0.0424967
39	0xbcff0043	-0.031128054
40	0x3d0773cf	0.033069428
41	0xbbba4009	-0.005683903
42	0x3ce7b9c1	0.028286817
43	0xbd5d3db0	-0.054013908
44	0xbd378e12	-0.044813223
45	0x3b3bc10b	0.0028648998
46	0xbba78be5	-0.0051131123
47	0xbc5bdaa7	-0.01341883
48	0xbc01005a	-0.007873619
49	0x3cdfbace	0.027310755
50	0xbd5dd6e1	-0.054160003
51	0xbd1e4fc0	-0.038650274
52	0x3cf92cbe	0.030416843
53	0xbc970926	-0.01843698
54	0x3c6a42ed	0.014298183
55	0x3cbd9dc6	0.023146521
56	0xbb98dc10	-0.0046649054
57	0xbc23c706	-0.009996181
58	0x3c810397	0.015748782
59	0xbcc2e12b	-0.02378901
60	0xbb2e6a99	-0.002661383
61	0xbd190e17	-0.037366953
62	0xbcd9add1	-0.02657214
63	0x3bf3507f	0.0074253674
64	0xbd582d53	-0.0527776
65	0x3cdf4fdb	0.027259758
66	0xbd1d1a99	-0.038355444
67	0xbc0220e0	-0.007942408
68	0x3bb2fcf2	0.0054622823
69	0x3cef0bb3	0.029180383
70	0xbca3050c	-0.019899867
71	0xbcc8bac4	-0.02450312
72	0x3bf571de	0.0074903807
73	0xbc005751	-0.007833318
74	0x3c8c211f	0.017105637
75	0x3d0aa0bd	0.0338447
76	0x3cb87c60	0.022520244
77	0xbd39afea	-0.04533378
78	0xbd4da216	-0.050203405
79	0x3c3e02fb	0.01159739
80	0x3c2c9961	0.010534615
81	0xbc99008b	-0.018677017
82	0x3c9751f1	0.01847169
83	0x3d0ab054	0.033859566
84	0xbc0f70e5	-0.0087549435
85	0xbd178ac9	-0.03699759
86	0xbcfbfceb	-0.03076025
87	0x3a92cf54	0.0011200705
88	0x39bafca5	0.0003566492
89	0x3d2a33d5	0.041553337
90	0x3c740612	0.014894025
91	0x3c63cc9e	0.013903765
92	0x3c8ccf69	0.017188745
93	0xbcdb0a0a	-0.026738185
94	0x3c8581e4	0.016297288
95	0xbd54c102	-0.05194188
96	0x3cb80fa8	0.022468403
97	0x3cc0566b	0.023478707
98	0x3af98700	0.0019037426
99	0xbbffadb1	-0.007802688
100	0xbcc7b186	-0.024376642
101	0x3cc638e6	0.024197053
102	0xbd32af4c	-0.043624207
103	0xbce0e965	-0.027455041
104	0x3ce83385	0.028344879
105	0x3d06d32b	0.03291623
106	0x3c4fa15e	0.01267275
107	0xbc84ca1e	-0.016209658
108	0x3ce445d3	0.027865326
109	0xbc7335b4	-0.014844347
110	0x3d499c8e	0.049221568
111	0x3d068c00	0.03284836
112	0xbd19edec	-0.037580416
113	0x3bc6de89	0.0060690087
114	0x3c96f420	0.018426955
115	0xbbe54553	-0.0069967895
116	0x3cb666b1	0.022265764
117	0xbc3a0436	-0.011353543
118	0xbc223f4d	-0.009902787
119	0xbcd595a2	-0.026072327
120	0xbcb7c454	-0.022432484
121	0xbc1961a2	-0.009361656
122	0xbc3c6a94	-0.01150002
123	0xbd1b9c49	-0.037990842
124	0xbd104792	-0.035224505
125	0xbc9b0e0d	-0.018927598
126	0x3bcc6eb3	0.0062387823
127	0xbb7372af	-0.0037147214
128	0x3d0e7657	0.034780826
129	0xbd3334d0	-0.043751538
130	0x3cf03f5f	0.029327093
131	0xbce7ce24	-0.028296538
132	0xbd5d2cc1	-0.05399776
133	0xbcfa7596	-0.030573647
134	0xbd1eeee3	-0.03880204
135	0xbcac4e7c	-0.021033518
136	0xbd44812b	-0.047974747
137	0x3cdf54be	0.027262088
138	0x3ca0436d	0.019563401
139	0xbc8bea2c	-0.017079435
140	0x3cb9db9b	0.022687724
141	0xbc90b6be	-0.017665263
142	0xbd585216	-0.05281266
143	0xbd4025ed	-0.04691117
144	0xbcda6a12	-0.026661906
145	0xbd13ed5c	-0.036115035
146	0xbd2a4f41	-0.04157949
147	0xbd1370d8	-0.035996288
148	0x3a8a88a2	0.0010569284
149	0x3b480244	0.0030518929
150	0x3d02c937	0.031930175
151	0xbcf8f49e	-0.03039008
152	0xbd1c2f2e	-0.03813093
153	0xbd5a149d	-0.053242315
154	0x3ca67869	0.020321088
155	0xbc266a80	-0.0101572275
156	0xbbbafbed	-0.0057063014
157	0xbcc8a638	-0.024493322
158	0xbd45fab5	-0.048334796
159	0x3ccc5ecd	0.024947548
160	0x3caf0a26	0.021367144
161	0xba3ec630	-0.0007277457
162	0x3ca686bf	0.020327924
163	0xbc8ebad5	-0.017423073
164	0xbacd77da	-0.0015675977
165	0x3c0a7446	0.008450573
166	0x3cb9e877	0.022693856
167	0xbd03b5b1	-0.032155696
168	0xbc473e2d	-0.01216082
169	0x3cf3b3e2	0.02974886
170	0x3b6b3a34	0.0035892846
171	0x3c8aa5bb	0.01692473
172	0xbc04301a	-0.008068109
173	0x3c10fa95	0.008848806
174	0xbd4ceadb	-0.050028663
175	0x3c93332b	0.017968735
176	0xbcacd04f	-0.021095423
177	0xbc63175f	-0.013860553
178	0xbd1cc7d5	-0.038276512
179	0x3c13e419	0.009026551
180	0x3c9a42d3	0.018830692
181	0x3bc1ffe6	0.005920398
182	0xbce30475	-0.027712086
183	0xbd3dfb3a	-0.046382166
184	0xbb93a7b7	-0.004506077
185	0xbcee6cbe	-0.029104587
186	0xbd366bb4	-0.044536307
187	0xbc875f8c	-0.016525052
188	0xbcbd1236	-0.023079973
189	0x3be0d36a	0.00686114
190	0xbb8ae988	-0.004239265
191	0x3c51ba8e	0.012800826
192	0xbb2f4791	-0.0026745538
193	0xbbbaf554	-0.005705515
194	0x3d351451	0.04420883
195	0x3d0c5e0e	0.034269385
196	0x3cae9e9e	0.021315869
197	0xbd57875f	-0.052619334
198	0xbca32160	-0.019913375
199	0xbd2c1755	-0.04201444
200	0xbd4c74a0	-0.04991591
201	0x3cb9d006	0.022682201
202	0x3ce98859	0.028507398
203	0xbc9aede3	-0.018912261
204	0x3aec6c6b	0.0018037682
205	0xbc76a74f	-0.015054538
206	0x3c4f835a	0.012665594
207	0xbcc1c58f	-0.023653774
208	0x3d326bb8	0.04355976
209	0xbb3c7d6a	-0.0028761276
210	0xbd22dde8	-0.039762408
211	0x3ccbb615	0.024867097
212	0xbd571055	-0.05250581
213	0x3c38281c	0.011240032
214	0x3ca7c198	0.020478055
215	0xbc26eb69	-0.010187962
216	0xbd5c1afd	-0.053736676
217	0xbd2d6afc	-0.042338356
218	0x3c8101ae	0.015747871
219	0xbc7d6a0d	-0.015467179
220	0xbd2d9b80	-0.042384624
221	0x3cc0f7c1	0.023555638
222	0x3d15d1fa	0.036577202
223	0xbd28721d	-0.041124452
224	0x3d004427	0.031314995
225	0xbc9cee20	-0.019156516
226	0x3c812cdb	0.015768459
227	0xbc9f47ad	-0.019443357
228	0xbd395570	-0.045247495
229	0x3cc646ec	0.02420374
230	0x3c9dfb22	0.019284789
231	0xbc9edd69	-0.019392686
232	0x3c8e799a	0.017391969
233	0xbd41ecd8	-0.047345012
234	0xbd45d974	-0.048303083
235	0x3cb3cbd9	0.021947788
236	0xbc78fd46	-0.015197104
237	0x3ccc541c	0.02494245
238	0x3d0c6948	0.03428009
239	0xbd03881a	-0.03211222
240	0xbd1e0072	-0.038574643
241	0xbc983e98	-0.018584535
242	0xbd283cac	-0.041073486
243	0xbb169353	-0.0022975996
244	0xbd134b9b	-0.035960775
245	0x3c25c779	0.010118359
246	0xbb812065	-0.0039406293
247	0xbc7c547a	-0.015401
248	0xbc5ca21f	-0.013466387
249	0x3cefd356	0.029275578
250	0x3d22ef95	0.039779264
251	0xbd4a1c54	-0.049343422
252	0xbd3f2c35	-0.04667302
253	0x3cd97132	0.026543234
254	0x3c635a4e	0.013876511
255	0x3cc65700	0.024211407

bias f4 [50]
0	0xbd030adf	-0.03199279
1	0x3b08051a	0.0020754994
2	0x3d17966f	0.0370087
3	0x3c832ed0	0.016013533
4	0x3bd64245	0.0065386617
5	0x3cfa64fb	0.03056573
6	0xbc6c678f	-0.014428987
7	0x3bc522fd	0.006016134
8	0x3cf7317a	0.03017496
9	0xb6a4cfa5	-4.911754e-06
10	0xbd08e350	-0.033419907
11	0xbd5cf087	-0.053940322
12	0x3c8cade0	0.017172754
13	0x3aa74d96	0.0012764211
14	0x3cd5005e	0.026001152
15	0x3cb8667a	0.022509802
16	0xbceb309d	-0.028709704
17	0x3c09b306	0.008404499
18	0xbbb2ba53	-0.0054543405
19	0x3c76a897	0.015054843
20	0xbceb37a7	-0.02871306
21	0x3caa3f57	0.020782156
22	0x3d0862ab	0.033297222
23	0xbc66b6bb	-0.014081652
24	0x3c855b04	0.016278751
25	0x3cbc7561	0.02300519
26	0xbd0158b5	-0.03157874
27	0xbcbe0caf	-0.023199407
28	0x3cc09d4d	0.023512507
29	0x3c567c5b	0.013091172
30	0x3c18125e	0.009281723
31	0xbd4b113b	-0.04957698
32	0xbcbd0339	-0.023072826
33	0xbd2536ee	-0.04033559
34	0x3a670b3d	0.00088136253
35	0x3c5fdc11	0.013663308
36	0xbd07e11d	-0.03317367
37	0xbd1e4859	-0.038643215
38	0xbd2069d1	-0.039163414
39	0xbc5408ff	-0.012941598
40	0x3ccd06b2	0.025027607
41	0xbaa678b7	-0.0012700771
42	0x3d010552	0.031499214
43	0x3d03b886	0.032158397
44	0x3c7944a6	0.015214121
45	0xbbb353bc	-0.0054726284
46	0xbd07e08f	-0.03317314
47	0x3c9cf389	0.019159095
48	0x3ca4c650	0.020114094
49	0x3c2c25af	0.010507031

weight f4 [50, 50]
0	0xbd3bb78e	-0.04582935
1	0xbdbcfc77	-0.09227841
2	0xbd9b787b	-0.07591339
3	0xbdf55a5f	-0.119801275
4	0x3ca26601	0.01982403
5	0x3ddb6867	0.107132725
6	0xbc4deb13	-0.012568253
7	0x3c8ff132	0.017571066
8	0x3d021c94	0.031765535
9	0x3dbf01de	0.09326528
10	0xbe0e6508	-0.13905728
11	0xbd8fb0c0	-0.07016134
12	0x3dda7dfb	0.1066856
13	0xbd620fb4	-0.055190757
14	0x3d64356e	0.055715017
15	0xbd584b68	-0.052806288
16	0x3c817f89	0.015807884
17	0xbc9b6335	-0.018968204
18	0xbdc56923	-0.09639194
19	0xbccd0e71	-0.0250313
20	0xbda688a7	-0.08131533
21	0x3ce02b33	0.027364349
22	0xbd5b0847	-0.05347469
23	0xbd707894	-0.058708742
24	0x3c1b1f31	0.009467886
25	0xbde2810f	-0.11059772
26	0xbdb3bcd9	-0.08776254
27	0xbd94f7d1	-0.0727383
28	0xbd4db7af	-0.050224002
29	0x3d698557	0.05701193
30	0xbdfe07cf	-0.12403833
31	0xbc7afe87	-0.015319473
32	0x3df122e0	0.1177423
33	0xbd39345e	-0.045215957
34	0xbe04b23a	-0.12958613
35	0x3dc9ccd3	0.0985352
36	0xbb4f4428	-0.0031626318
37	0xbdce00d2	-0.1005875
38	0xbc78be81	-0.015182138
39	0xbdcaf821	-0.09910608
40	0x3dbdce2f	0.09267842
41	0x3da699ce	0.08134805
42	0x3e11adb7	0.14226423
43	0x3e12a133	0.14319305
44	0x3dca2d83	0.09871962
45	0x3debccb8	0.115136564
46	0x3de6ae32	0.11263694
47	0x3cdc88d2	0.02692071
48	0xbcf5d2d8	-0.030007765
49	0x3d25f9a9	0.040521298
50	0xbd83081a	-0.063980296
51	0x3d55368a	0.052053966
52	0xbd4295df	-0.04750621
53	0x3d963787	0.0733481
54	0xbd9cd60b	-0.07658013
55	0x3cc4518b	0.023964664
56	0x3cabd127	0.020973755
57	0x3ca465f4	0.020068146
58	0x3caff611	0.021479638
59	0x3c2a49a1	0.010393531
60	0x3dba94bf	0.09110402
61	0xbd47300f	-0.048629817
62	0xbdbdc9b9	-0.09266991
63	0x3c8bc08e	0.01705959
64	0x3d58749f	0.052845594
65	0x3e058420	0.13038683
66	0xbdc94c6a	-0.09829028
67	0x3caec589	0.021334426
68	0x3d1de731	0.03855056
69	0xbd071f7d	-0.032989014
70	0x3d2e2e3a	0.042524554
71	0x3d22a06f	0.039703783
72	0xbdbe1603	-0.09281542
73	0x3d75726a	0.059923567
74	0x3d8a92ee	0.06766306
75	0xbdbf01ee	-0.0932654
76	0x3d354706	0.044257186
77	0xbcb362dc	-0.021897726
78	0xbde5d2cc	-0.11221847
79	0x3c9888cf	0.018619923
80	0x3dc3513f	0.09536981
81	0x3ca0292e	0.019550886
82	0x3d6439c1	0.05571914
83	0xbda991b8	-0.08279747
84	0xbcc0b978	-0.023525938
85	0xbe0f73d8	-0.14009035
86	0x3d805a5b	0.06267234
87	0x3da4bcde	0.08043836
88	0xbdca8b6b	-0.09889873
89	0x3d276896	0.040871225
90	0xbe04051d	-0.12892576
91	0x3dcf2d5c	0.101160735
92	0xbddb2aa3	-0.10701492
93	0x3dba3198	0.090914905
94	0x3de425d6	0.11140029
95	0x3da3e7c3	0.080031894
96	0x3dde8a4c	0.10866222
97	0x3d394997	0.045236196
98	0x3d747af1	0.05968756
99	0x3dea8259	0.11450643
100	0x3d753e51	0.059873883
101	0x3dc76a10	0.09737027
102	0xbd0dea00	-0.034646988
103	0x3dd36a0b	0.103229605
104	0x3d5965be	0.053075545
105	0xbd8415bb	-0.06449457
106	0x3bf045d9	0.0073325452
107	0x3d956fdb	0.07296725
108	0x3ddea98e	0.10872184
109	0x3d1b3b11	0.037898127
110	0xbd9c6dbb	-0.07638117
111	0xbe09bb9a	-0.1345047
112	0xbdcdf29a	-0.10056038
113	0x3e0ac4a7	0.1355158
114	0x3d942634	0.07233849
115	0x3d2b5b25	0.04183497
116	0xbc61c7c2	-0.013780536
117	0x3cdfb168	0.027306274
118	0xbd9cde44	-0.07659581
119	0xbd394941	-0.045235876
120	0xbda86ab5	-0.08223478
121	0xbd2bfb7e	-0.04198789
122	0x3d73fc2e	0.05956667
123	0xbd8763c7	-0.06610828
124	0xbd65e14e	-0.05612307
125	0xbe0951b8	-0.1341008
126	0xbce33638	-0.027735814
127	0x3deca8f6	0.11555664
128	0x3c00fc52	0.007872658
129	0xbde04c2d	-0.109520294
130	0xbe06230f	-0.13099311
131	0xbd82ae71	-0.06380928
132	0x3cee1b7f	0.029065846
133	0x3de251d0	0.11050761
134	0xbce48092	-0.027893338
135	0xbdf79ef8	-0.12090868
136	0xbd90af67	-0.07064705
137	0xbde3fa3d	-0.111317135
138	0xbd4d3074	-0.050095037
139	0x3d251411	0.04030234
140	0xbdf185ef	-0.11793124
141	0x3d822d0b	0.063562475
142	0xbd456fc1	-0.04820228
143	0x3ca88619	0.020571755
144	0xbd8b39b2	-0.06798114
145	0xbd84b6ae	-0.06480156
146	0x3d970096	0.07373159
147	0xbd8bfb7a	-0.06835075
148	0xbe032fdb	-0.12811224
149	0xbcc167fd	-0.023609156
150	0x3ddfd1a0	0.10928655
151	0xbd95773e	-0.07298134
152	0x3d6598e0	0.056053996
153	0xbd9288d5	-0.07155005
154	0xbd5ffaeb	-0.054682653
155	0x3df28e69	0.11843569
156	0xbd940913	-0.07228293
157	0xbe05e116	-0.13074145
158	0x3d2851af	0.041093525
159	0x3dfb1c3f	0.12261247
160	0x3dfd8d5d	0.123804785
161	0xbd23c01f	-0.039978143
162	0x3c305d0e	0.0107643735
163	0xbda4b623	-0.08042552
164	0x3e02d0fc	0.12775034
165	0xbd945938	-0.072435796
166	0xbd353c00	-0.044246674
167	0xbdf0ed2c	-0.11763987
168	0xbdf22d3a	-0.118250325
169	0x3d1713dc	0.036884174
170	0xbbdaf480	-0.0066819787
171	0xbd68049e	-0.05664503
172	0xbc484569	-0.01222358
173	0x3d32407c	0.04351853
174	0xbc8d312e	-0.017235365
175	0xbca940ed	-0.020660842
176	0x3bc5549c	0.006022049
177	0x3e0e5ed5	0.13903363
178	0x3da504cf	0.08057558
179	0x3c9bb4fd	0.0190072
180	0x3d166b2e	0.03672331
181	0x3d602fdf	0.054733153
182	0x3d67c5a7	0.05658498
183	0xbd1f62ac	-0.03891246
184	0xbdf9ae73	-0.12191477
185	0x3dbf750f	0.09348499
186	0xbdb1b4a2	-0.08677031
187	0xbcfd9853	-0.030956423
188	0xbdd46bfb	-0.10372158
189	0x3ca156e8	0.01969476
190	0xbde3750e	-0.11106311
191	0xbaf133d2	-0.0018402284
192	0xbde3c312	-0.11121191
193	0x3d9b6852	0.07588257
194	0xbdb0f19c	-0.08639833
195	0xbbcb14c1	-0.0061975424
196	0x3e04839b	0.12940829
197	0x3d8c383c	0.06846663
198	0x3d58e172	0.052949376
199	0x3d8d58f8	0.06901735
200	0xbd68efd0	-0.056869328
201	0x3d527df5	0.051389653
202	0x3be92871	0.0071154167
203	0x3bfba75f	0.0076798643
204	0x3da7d20c	0.0819436
205	0x3e0ee583	0.1395474
206	0xbcc8490a	-0.02444889
207	0xbc89bcf0	-0.016813725
208	0xbb9ae250	-0.0047266856
209	0x3d4e95b4	0.050435737
210	0xbdbf6507	-0.09345441
211	0x3d9aaa53	0.07552018
212	0x3e0eb455	0.13935979
213	0xbd220a83	-0.039560806
214	0xbd3c008e	-0.045898966
215	0xbd557c10	-0.05212027
216	0x3d5b9a16	0.053613745
217	0x3d44d7d3	0.04805739
218	0xbdfa1aa1	-0.1221211
219	0xbe0e56d6	-0.13900313
220	0x3e05f8d2	0.13083199
221	0xbdaec090	-0.08532822
222	0xbdb5ace2	-0.088708654
223	0x3da1711f	0.07882904
224	0x3d6eec95	0.05833109
225	0x3d364abc	0.044504866
226	0xbdd0451c	-0.101694316
227	0xbe04dc50	-0.12974668
228	0x3d10d822	0.03536237
229	0xbe002a03	-0.12516026
230	0xbd05d971	-0.03267807
231	0xbd930a55	-0.07179705
232	0x3e02bb44	0.12766749
233	0xbdb43a7b	-0.08800217
234	0x3d8aba4e	0.06773816
235	0xbdc296ef	-0.095014445
236	0x3c208d03	0.009799245
237	0xbe07e598	-0.13271177
238	0x3de5034c	0.111822695
239	0xbde8cc28	-0.11367065
240	0x3e0a65b6	0.13515362
241	0xbdcc5130	-0.09976423
242	0x3de35924	0.111009866
243	0xbdf05d6a	-0.11736567
244	0xbded45f5	-0.11585609
245	0x3d8d97de	0.06913732
246	0x3c7ae8f8	0.015314333
247	0xbc1ed48d	-0.009694231
248	0xbd8c9a42	-0.0686536
249	0xbdc9fc92	-0.09862627
250	0x3c5503f0	0.013001427
251	0x3d9974a0	0.074929476
252	0xbc9a7533	-0.018854713
253	0x3d7c2602	0.061559685
254	0x3db2c374	0.08728686
255	0xbe058559	-0.1303915

bias f4 [50]
0	0xbd18cff6	-0.037307702
1	0x3d8d5fa0	0.06903005
2	0xbbcdde72	-0.006282621
3	0x3d6cb1ea	0.05778686
4	0xbc30c6f6	-0.0107896235
5	0xbdd2c34d	-0.10291157
6	0x3d38fab4	0.045160964
7	0x3de1d353	0.11026635
8	0xbd836f7c	-0.06417748
9	0x3d63869c	0.055548295
10	0x3c5f16f7	0.013616315
11	0xbd02b0f9	-0.031907056
12	0xbd2b4c20	-0.041820645
13	0x3df4d677	0.119549684
14	0xbd8844ee	-0.06653772
15	0x3d0442f0	0.0322904
16	0x3dc23fbf	0.09484815
17	0xbd05e225	-0.03268637
18	0x3db1b7ed	0.08677659
19	0xbe0af0a1	-0.13568355
20	0x3dc9b4ee	0.09848963
21	0x3ce2978a	0.02766015
22	0xbdb4d3d6	-0.08829467
23	0x3dbd85f5	0.09254066
24	0x3b996a56	0.0046818657
25	0x3d3bff1a	0.04589758
26	0xbd222d86	-0.039594196
27	0x3d97a472	0.07404412
28	0x3d2cc823	0.042183053
29	0x3d815eae	0.06316887
30	0x3d78bb53	0.06072552
31	0x3d3db5ab	0.04631583
32	0xbdbf09ef	-0.093280666
33	0x3dd6c4dd	0.104867674
34	0x3dc885f4	0.097911745
35	0xbd76b587	-0.06023171
36	0x3bf2f52e	0.0074144816
37	0x3d830bea	0.06398757
38	0xba700167	-0.00091554824
39	0xbe0d3878	-0.13791072
40	0xbdb2f020	-0.087372065
41	0xbd5ff7c6	-0.054679655
42	0xbcf113fb	-0.029428473
43	0x3dbae85c	0.0912635
44	0xbde6d32a	-0.11270745
45	0xbdad02f0	-0.08447826
46	0x3d8dfa8a	0.06932552
47	0xbdb97909	-0.09056289
48	0x3d94236a	0.07233317
49	0xbe023beb	-0.1271817

weight f4 [100, 50]
0	0xbddfe8a3	-0.10933044
1	0xbc3148ee	-0.01082061
2	0x3cd0727d	0.025445217
3	0x3dd95389	0.10611636
4	0xbc711fdb	-0.014717068
5	0x3da4ab2c	0.08040461
6	0x3d443d25	0.047909874
7	0xbd26fe95	-0.040770132
8	0x3bcae4ac	0.0061918106
9	0xba94fed4	-0.0011367449
10	0xbd9d1759	-0.07670469
11	0xbd991284	-0.07474235
12	0xbe1544c5	-0.14577015
13	0x3e0b4417	0.13600193
14	0xbd37b2bd	-0.044848192
15	0xbcc425bc	-0.023943774
16	0x3aaa1416	0.0012975957
17	0xbbf42dfb	-0.0074517704
18	0xbc659700	-0.014013052
19	0x3d396954	0.045266464
20	0x3cbff31d	0.023431355
21	0xbda9d160	-0.08291888
22	0x3e0ba493	0.13636999
23	0xbd7356a4	-0.0594088
24	0xbdedcb6e	-0.11611067
25	0x3da42b4d	0.080160715
26	0x3d14dd81	0.036344055
27	0x3d853e14	0.06505981
28	0x3d32c555	0.04364522
29	0xbcfc5f41	-0.03080714
30	0xbdf5d0f4	-0.12002745
31	0xbe0f19d2	-0.13974693
32	0x3c2ab086	0.010418063
33	0xbd474772	-0.04865212
34	0x3dc8511c	0.097810954
35	0xbd800c31	-0.06252325
36	0xbc5bc330	-0.013413236
37	0xbe042bad	-0.12907286
38	0x3da2285e	0.07917856
39	0xbdc8c5fb	-0.09803387
40	0x3e019a89	0.12656607
41	0x3e084613	0.13307981
42	0xbd5594bc	-0.052143797
43	0xbdf13bdb	-0.11778995
44	0xbdbcda50	-0.09221327
45	0xbdac48da	-0.08412333
46	0x3d1f947a	0.038959958
47	0x3dd75c23	0.105156206
48	0xbdc68fb8	-0.09695381
49	0x3d53872f	0.051642593
50	0x3db28f51	0.08718742
51	0x3dd66077	0.10467618
52	0xbe06074d	-0.13088723
53	0x3be20244	0.0068972427
54	0xbdb69da4	-0.08916786
55	0xbd7f7098	-0.062363237
56	0x3db7354c	0.089457124
57	0xbb840df9	-0.004029986
58	0x3bb0564c	0.005381381
59	0x3cece018	0.02891545
60	0xbe06f603	-0.13179784
61	0x3d82c63c	0.063854665
62	0x3c90d408	0.01767923
63	0xbe0b4a1b	-0.13602488
64	0x3ca1952c	0.019724451
65	0x3d58b847	0.052910116
66	0x3e189e1d	0.14904065
67	0x3db59e76	0.08868115
68	0x3cab659b	0.020922473
69	0xbdd1e48c	-0.1024867
70	0xbd72648d	-0.059177924
71	0x3d321d36	0.04348489
72	0xbcbf2e6f	-0.023337571
73	0x3d1b4189	0.037904296
74	0x3ddf3c7e	0.1090021
75	0x3d922e94	0.0713779
76	0x3d394158	0.045228332
77	0x3df484e0	0.119394064
78	0x3d4c3904	0.04985906
79	0xbd561951	-0.052270237
80	0xba6b7e5d	-0.0008983368
81	0xbda51417	-0.080604725
82	0x3d3ecf11	0.046584193
83	0x3d7f0254	0.06225808
84	0x3db8d821	0.09025598
85	0xbd784f82	-0.0606227
86	0x3b5586a4	0.0032581473
87	0x3c339ab4	0.010962177
88	0x3c592985	0.013254528
89	0xbd688021	-0.05676282
90	0x3e1f5285	0.15558822
91	0xbd4852a3	-0.048906934
92	0xbda1bb3e	-0.07897042
93	0xbdbaefd2	-0.09127773
94	0x3cc49f63	0.024001783
95	0x3cce2e59	0.025168585
96	0xbdf5e238	-0.120060384
97	0xbcde1e22	-0.027113978
98	0xbddf91fa	-0.10916515
99	0x3da0c7c7	0.078506045
100	0xbcc9c65e	-0.024630722
101	0xbe114109	-0.14184965
102	0x3d5733e4	0.05253972
103	0x3dcb0424	0.09912899
104	0xbd833bd9	-0.064078994
105	0x3d9f435a	0.07776518
106	0x3d86671f	0.065626375
107	0x3e0a38c1	0.13498212
108	0x3da061f9	0.07831187
109	0x3dc8b38d	0.097998716
110	0x3d2ec067	0.042663958
111	0xbca4a183	-0.020096546
112	0x3d89dd5d	0.06731675
113	0x3c3c849b	0.011506225
114	0x3e0917e2	0.13388017
115	0x3db8d1a2	0.09024359
116	0xbb6ff94e	-0.0036617103
117	0x3ce1f94b	0.027584692
118	0x3d5c4ebc	0.053786024
119	0x3de10445	0.109871425
120	0x3d8e2e7f	0.06942462
121	0xbe13abaf	-0.14420961
122	0x3dadaf28	0.08480674
123	0x3c84b3c8	0.016199008
124	0xbdd5c86d	-0.10438619
125	0x3d4bea33	0.049783897
126	0x3c9ac45a	0.018892456
127	0xbd84f2ed	-0.06491647
128	0x3d8c9d44	0.068659335
129	0xbd47c1af	-0.048768695
130	0x3c7d8462	0.015473457
131	0xbcdbe5d2	-0.026842985
132	0xbdc2f1bc	-0.095187634
133	0xbdd8f88b	-0.10594281
134	0x3ddaa7ff	0.10676574
135	0xbcec1bcf	-0.028821854
136	0xbde91ab8	-0.11382049
137	0xbdee2125	-0.116274156
138	0x3d662237	0.056184974
139	0x3dfb79f5	0.12279121
140	0x3db36e65	0.087612905
141	0x3e0820bb	0.13293736
142	0x3c59cd86	0.0132936295
143	0x3caecb3d	0.021337146
144	0xbca8a187	-0.020584835
145	0xbdc77e01	-0.0974083
146	0xbd9d8c3d	-0.07692764
147	0xbc05abae	-0.008158607
148	0xbdfcbcec	-0.123407215
149	0x3d34a649	0.044103894
150	0xbccca9cd	-0.024983311
151	0xbd0f2c9d	-0.034954656
152	0x3db0c2bf	0.08630895
153	0x3c82fc1d	0.015989358
154	0xbc88c07d	-0.016693348
155	0x3d50cca7	0.05097642
156	0x3de18706	0.11012082
157	0x3cf9127d	0.030404324
158	0x3c81e00b	0.015853902
159	0xbe047167	-0.12933885
160	0xbd825ce5	-0.063653745
161	0x3dbe36c3	0.09287789
162	0x3df13903	0.11778452
163	0xbd949afa	-0.07256122
164	0x3c45e4d2	0.012078481
165	0xbd8207fb	-0.063491784
166	0x3c9c45b8	0.019076213
167	0x3d647842	0.05577875
168	0xbd931d9f	-0.07183384
169	0xbdcd242d	-0.100166656
170	0x3dec7112	0.11545004
171	0xbcf2f581	-0.029658081
172	0x3dde2e60	0.10848689
173	0xbbd880ee	-0.0066071665
174	0xbe071db8	-0.1319493
175	0xbde52651	-0.11188949
176	0xbdc44bdf	-0.09584784
177	0x3d23b346	0.03996589
178	0xbdad446e	-0.084603176
179	0xbcc0f5e8	-0.023554757
180	0x3d051aaf	0.03249615
181	0xbcd4e437	-0.025987728
182	0x3df6b41b	0.12046071
183	0xbd4987fe	-0.049201958
184	0x3d945041	0.0724187
185	0x3ccdcb3e	0.025121327
186	0x3d1eeb57	0.038798656
187	0x3cdae363	0.026719755
188	0xbdb47349	-0.088110514
189	0xbd570bb8	-0.05250141
190	0xbd82bb7c	-0.06383416
191	0x3dcc7c07	0.09984594
192	0x3d0106a1	0.031500462
193	0x3dd69bcc	0.10478935
194	0x3d93acc2	0.07210685
195	0xbe1482f2	-0.14503077
196	0xbd61417f	-0.054994103
197	0x3d5167b8	0.051124305
198	0x3de31f64	0.11089972
199	0x3c0a26be	0.008432088
200	0xbdc43368	-0.095801175
201	0xbd4df047	-0.050277974
202	0x3dcbcd05	0.09951214
203	0x3dc911cf	0.0981785
204	0xbdd10ac7	-0.10207134
205	0x3c14dd85	0.0090860175
206	0xbde38fb5	-0.11111394
207	0x3dfe1122	0.124056116
208	0xbdaf29d5	-0.08552901
209	0x3cbaca16	0.02280144
210	0xbe02aabe	-0.12760445
211	0xbe1559dc	-0.1458506
212	0xbda90ab2	-0.08253993
213	0x3db350f5	0.08755676
214	0x3dece455	0.115669884
215	0xbd09dccb	-0.03365783
216	0x3db4316b	0.08798488
217	0xbda992bb	-0.0827994
218	0x3d9a2528	0.07526618
219	0x3d67ab20	0.056559682
220	0x3dba02da	0.09082575
221	0xbd986ae4	-0.07442263
222	0xbdf01e28	-0.11724502
223	0xbc0b037b	-0.0084847165
224	0x3d877e69	0.06615908
225	0xbcd0058c	-0.02539327
226	0xbe0b147d	-0.13582034
227	0xbb43c1e3	-0.0029870204
228	0x3d6bac78	0.057537526
229	0x3e0cc648	0.13747513
230	0xbd7fd4e6	-0.062458895
231	0xbe0f645c	-0.14003128
232	0x3dbe1fb3	0.0928339
233	0xbdb23b34	-0.08702698
234	0x3cee5ccd	0.029096985
235	0x3c2a3e63	0.010390851
236	0xbdf8fd4f	-0.1215769
237	0xbe0a1b4b	-0.13486974
238	0xbc914fec	-0.017738305
239	0x3d387590	0.04503399
240	0x3db9fbc3	0.09081223
241	0x3c380adf	0.011233061
242	0xbdcf53ce	-0.10123406
243	0xbd80a557	-0.06281536
244	0xbd4c9f4c	-0.049956605
245	0xbd397c05	-0.04528429
246	0xb97f09e9	-0.00024322387
247	0x3df72246	0.12067084
248	0xbe12841b	-0.14308207
249	0xbd5f7128	-0.054551274
250	0x3c6dced3	0.014514643
251	0x3d893cf1	0.06701077
252	0xbc5c1c08	-0.013434418
253	0xbcb584cc	-0.022158049
254	0xbdd370c5	-0.103242435
255	0x3daf8d6d	0.08571897

bias f4 [100]
0	0xbdcc648f	-0.099801175
1	0x3dd575c7	0.10422855
2	0xbd95d1eb	-0.07315429
3	0x3c97c77a	0.018527735
4	0xbd64f73d	-0.055899847
5	0xbc5939ae	-0.013258381
6	0x3ddeabad	0.10872588
7	0x3de8f997	0.113757305
8	0x3dede2a1	0.11615492
9	0x3df3b00b	0.11898812
10	0x3df9ebf9	0.12203211
11	0xbe0c032a	-0.13673082
12	0xbde59385	-0.11209778
13	0xbdf2b43e	-0.11850785
14	0x3d89a3b4	0.06720677
15	0xbe0624b8	-0.13099945
16	0xbc90d16d	-0.017677987
17	0x3cd94c7c	0.026525728
18	0x3db90229	0.09033615
19	0xbc7aa87c	-0.015298959
20	0x3d063f40	0.032775164
21	0xbdaea781	-0.085280426
22	0x3da30b44	0.07961133
23	0xbd6549d8	-0.055978626
24	0xbd3280b9	-0.04357979
25	0x3d2fe922	0.042946942
26	0xbc8166d1	-0.015796097
27	0xbe0a3b66	-0.13499221
28	0xbbb4a59d	-0.0055129067
29	0x3df9ed6a	0.12203486
30	0x3d11aabd	0.03556322
31	0x3d0794c6	0.033100866
32	0x3d1bba42	0.038019426
33	0x3d9d1abe	0.07671116
34	0xbd118d15	-0.035534937
35	0x3e06fceb	0.13182418
36	0xbdc6af08	-0.09701353
37	0xbe067ac0	-0.13132763
38	0xbdfe661b	-0.12421819
39	0x3c203781	0.009778858
40	0xbcb31399	-0.02185993
41	0x3cd3ce8e	0.025855329
42	0xbdb1455d	-0.08655808
43	0x3dc6be1e	0.09704231
44	0x3c079542	0.008275332
45	0xbbad0066	-0.0052795885
46	0xbc8cbfdc	-0.01718133
47	0xbd8746ca	-0.06605299
48	0x3c533f4f	0.012893512
49	0xbd257f19	-0.040404413
50	0xbd3695ea	-0.044576563
51	0x3d7860af	0.06063908
52	0xbe03167e	-0.12801549
53	0x3c7cfa01	0.015440465
54	0xbe09cd43	-0.13457207
55	0x3db744da	0.08948679
56	0xbce0ba56	-0.027432602
57	0x3cc09df9	0.023512827
58	0x3d8a3ea7	0.06750231
59	0xbd565ad6	-0.05233272
60	0xbd69508d	-0.056961585
61	0xbbde9ae5	-0.006793367
62	0x3d8ede84	0.06976035
63	0x3d805b92	0.06267466
64	0xbd619c68	-0.0550808
65	0x3d83c51b	0.06434079
66	0xbdaf15e9	-0.08549101
67	0xbe077d2e	-0.13231346
68	0xbd420a3b	-0.047373038
69	0xbd95ad77	-0.073084764
70	0xbc026443	-0.007958475
71	0x3df2e108	0.118593276
72	0xbd8a7f48	-0.06762558
73	0xbd4d8c9a	-0.050182916
74	0xbd7db0f9	-0.061936352
75	0xbbb68e39	-0.0055711535
76	0x3d8a5924	0.067552835
77	0x3e046dc2	0.12932494
78	0xbcede90c	-0.02904179
79	0x3dd07223	0.1017802
80	0x3dda79f2	0.106677905
81	0xbcbfb8d0	-0.023403555
82	0xbc3123a9	-0.010811725
83	0xbd11a40b	-0.035556834
84	0xbddc06c9	-0.10743482
85	0xbadf37a6	-0.0017030134
86	0xbdd3df63	-0.10345342
87	0xbd63ed2d	-0.05564611
88	0xbdee41c5	-0.11633638
89	0xbdc8640f	-0.0978471
90	0xbd591959	-0.05300269
91	0x3dc7101a	0.09719868
92	0x3de02d4d	0.109461404
93	0x3d4b2e21	0.04960454
94	0xbc98c56e	-0.01864883
95	0xbcb00093	-0.021484649
96	0xbd7b5cea	-0.061367907
97	0xbc3c9263	-0.011509511
98	0x3d20b0ce	0.039231114
99	0x3cb0e4a3	0.021593397

weight f4 [100, 100]
0	0xbd893eb5	-0.067014135
1	0x3cd6cf00	0.026221752
2	0xbd8a1c55	-0.06743685
3	0xbd442b65	-0.047892947
4	0xbd9b29b5	-0.07576314
5	0x3dbbe2bb	0.09174105
6	0x3d0ef2c4	0.034899488
7	0x3d19906a	0.03749124
8	0xbd886a12	-0.06660856
9	0x3d99f455	0.07517306
10	0x3d5a3890	0.0532766
11	0x3d9833a1	0.074317224
12	0xbcfa1c22	-0.030530993
13	0xbc91a365	-0.017778108
14	0x3df06955	0.117388405
15	0xbc8abb13	-0.016934907
16	0xbd7c4465	-0.061588664
17	0xbd95a72a	-0.07307275
18	0x3d00068b	0.03125624
19	0x3db6b215	0.08920685
20	0xbcf274c4	-0.029596694
21	0xbd705d5e	-0.058682792
22	0xbdff1fb2	-0.12457217
23	0x3cb67ca8	0.022276238
24	0x3c96c8ae	0.018406238
25	0x3d9f619c	0.077822894
26	0x3d8d80b4	0.06909314
27	0x3d9a7147	0.07541137
28	0x3d4d431d	0.050112832
29	0x3d4842c6	0.048891805
30	0x3d9c4642	0.07630588
31	0x3d3b57ac	0.045737907
32	0xbd87a563	-0.06623342
33	0x3dc1196a	0.094286755
34	0x3cf5146a	0.02991696
35	0xbd6dab17	-0.058024492
36	0x3dae4af5	0.08510391
37	0x3d8034be	0.0626006
38	0xbcb84a32	-0.022496317
39	0xbd88a1f4	-0.06671515
40	0x3d21ed81	0.039533142
41	0xb76a2803	-1.3956803e-05
42	0x3de494f8	0.11161226
43	0xbb9f2deb	-0.004857769
44	0xbcd732a0	-0.026269257
45	0xbc62f52c	-0.013852399
46	0x3d8c7e36	0.0686001
47	0x3dc4cd84	0.096095115
48	0x3d7ad842	0.061241396
49	0xbd90e9ba	-0.0707583
50	0x3d224fbe	0.03962683
51	0x3dcccdfc	0.10000226
52	0x3d48bd42	0.049008615
53	0x3d651843	0.05593134
54	0x3d16baf1	0.036799375
55	0x3d67b040	0.05656457
56	0xbcee82dd	-0.029115135
57	0x3dbb9954	0.091601044
58	0xbd226707	-0.039649036
59	0xbd700a73	-0.058603715
60	0x3cb6f480	0.022333384
61	0xbd7e5171	-0.062089387
62	0xbd9e3317	-0.07724588
63	0xbd82e1df	-0.06390738
64	0x3d6b28a6	0.057411812
65	0x3d8c02a1	0.06836439
66	0xbcab1ae2	-0.020886842
67	0xbda7b32e	-0.08188473
68	0xbd8646c0	-0.06556463
69	0xbd8ccb8c	-0.06874761
70	0xbdc831cc	-0.09775123
71	0xbcc00055	-0.023437658
72	0x3d9d58eb	0.076829754
73	0x3d2668e9	0.040627394
74	0x3d35feb9	0.044432376
75	0x3d2ec552	0.042668648
76	0x3da08623	0.078380845
77	0x3da31936	0.07963793
78	0xbd2fbfc1	-0.04290748
79	0xbdae8c7c	-0.08522889
80	0x3cee72c2	0.029107455
81	0x3b9c2633	0.004765296
82	0x3ca836e3	0.020533985
83	0xbcaf2239	-0.021378623
84	0xbd7581b2	-0.05993814
85	0x3c6f656d	0.014611584
86	0xbd7d2e95	-0.061812002
87	0x3c2844c6	0.010270303
88	0xbd33ee45	-0.043928403
89	0x3d36f04e	0.044662766
90	0x3c4ffe40	0.012694895
91	0x3d0bc427	0.034122612
92	0xbd2b365b	-0.041799884
93	0xbd51a7fb	-0.05118559
94	0x3d828598	0.06373137
95	0xbda0e5e0	-0.07856345
96	0xbcd59927	-0.026074005
97	0x3dd19959	0.10234327
98	0x3d298ada	0.041392185
99	0x3ca20abc	0.01978051
100	0xbd4ffdcd	-0.050779153
101	0x3db5b732	0.08872832
102	0xbd48a4a6	-0.048985146
103	0x3be74f0a	0.0070589827
104	0x3dcd4534	0.10022965
105	0x3d24523f	0.0401175
106	0x3ca1bbd3	0.019742882
107	0x3d24dcf5	0.040249784
108	0xbc45f3cf	-0.012082054
109	0xbd0cb3a0	-0.03435099
110	0x3dcac033	0.0989994
111	0xbd800074	-0.062500864
112	0xbc94bf59	-0.018157648
113	0xbd5c67f8	-0.05381009
114	0x3d01c601	0.031682972
115	0x3dad71a1	0.084689386
116	0xbca8ca79	-0.020604359
117	0x3d736425	0.059421677
118	0x3d976bf0	0.07393634
119	0x3d19fd43	0.037595045
120	0x3acb8e77	0.0015530129
121	0xbc49cfed	-0.01231764
122	0xbb84879e	-0.004044487
123	0x3d875c45	0.06609396
124	0xbb4c963e	-0.003121748
125	0xbd8ead90	-0.06966698
126	0x3b41e4cb	0.0029585834
127	0x3d72da8d	0.059290458
128	0x3d908d53	0.070582055
129	0x3d2c4593	0.04205854
130	0x3d64bd62	0.055844672
131	0x3d25b20e	0.04045301
132	0xbd166697	-0.03671893
133	0x3d9fd901	0.07805062
134	0x3dbae57f	0.09125804
135	0x3d999e1d	0.07500861
136	0xbd143222	-0.036180623
137	0x3ba0217b	0.0048868037
138	0xbd12c551	-0.035832707
139	0xbd75f2db	-0.06004606
140	0xbd500236	-0.05078336
141	0xbc9e5ca4	-0.019331284
142	0xbc42c5e5	-0.011888002
143	0x3da26106	0.07928662
144	0x3cd43f7a	0.025909174
145	0x3e06748f	0.13130401
146	0xbd9acc3b	-0.07558485
147	0x3ce0a570	0.027422637
148	0x3d0b4953	0.034005474
149	0xbd9a5ef1	-0.0753764
150	0x3d8866ea	0.06660254
151	0x3df2daa7	0.11858111
152	0x3dbf9171	0.093539126
153	0xbd898b72	-0.0671605
154	0xbd98b95b	-0.07457229
155	0x3d9f4b7b	0.07778069
156	0xbc3e8a3d	-0.011629638
157	0x3d5d67fe	0.054054253
158	0xbc18355c	-0.009290066
159	0x3d9bd00b	0.076080404
160	0x3d781afa	0.0605726
161	0xbdbb5eb0	-0.091489196
162	0x3dc03310	0.093847394
163	0xbc5037b3	-0.012708592
164	0x3dba5a1f	0.090992205
165	0x3db2ead6	0.08736198
166	0xbdaf5980	-0.08561993
167	0xbd4a5f2d	-0.049407173
168	0x3da14fde	0.078765616
169	0xbd79e77e	-0.061011784
170	0xbbea7829	-0.0071554375
171	0xbd9f67bd	-0.077834584
172	0x3dcdce18	0.10049075
173	0xbd890371	-0.066901095
174	0x3d8cc37c	0.06873223
175	0xbd485398	-0.048907846
176	0xbc8c0279	-0.017091023
177	0xbd870292	-0.06592287
178	0xbb029906	-0.0019927635
179	0xbb1a9f1d	-0.0023593374
180	0x3dab77ec	0.08372483
181	0x3d9733a3	0.07382896
182	0x3cd89e39	0.026442634
183	0xbd5151a5	-0.051103253
184	0xbd960da6	-0.07326822
185	0x3afc0405	0.0019227272
186	0x3cd5b045	0.026085028
187	0xbd20fd5e	-0.03930413
188	0xbd7edc30	-0.062221706
189	0x3d8866ee	0.06660257
190	0x3c270648	0.010194369
191	0x3c81fc60	0.015867412
192	0xbccdab98	-0.025106236
193	0xbd65bcb8	-0.05608818
194	0x3b8a3a91	0.0042184074
195	0xbd9db9d4	-0.077014595
196	0xbd13bb4c	-0.036067292
197	0xbcd6e939	-0.026234256
198	0x3c58dd33	0.013236332
199	0x3d9412d8	0.07230157
200	0xbd649d9a	-0.055814363
201	0x3da6d277	0.08145612
202	0xbda5484c	-0.0807043
203	0x3dae3ddb	0.08507892
204	0x3cd8abe7	0.026449157
205	0x3c8503d6	0.01623718
206	0xbdd7fc7e	-0.10546206
207	0x3da35ad0	0.079763055
208	0x3dafedb2	0.08590259
209	0xbc16f91f	-0.009214669
210	0x3dc09c23	0.09404781
211	0x3dbb31c0	0.091403484
212	0x3dd3b43e	0.10337113
213	0x3db7e3d3	0.08979001
214	0xbccfd980	-0.025372267
215	0x3d9e9a7b	0.077443086
216	0x3d2118c3	0.039330255
217	0xbdc86034	-0.09783974
218	0x3b21df47	0.0024699734
219	0xbcd32a24	-0.02577693
220	0xbd4c3cfc	-0.049862847
221	0x3d892c22	0.06697871
222	0x3d7b5046	0.06135585
223	0xbda468ea	-0.08027823
224	0x3d95a708	0.07307249
225	0xbde24aeb	-0.11049446
226	0x3c9fd36c	0.019509993
227	0x3da28bf4	0.0793685
228	0xbd9934e6	-0.07480793
229	0xbba0f0e2	-0.004911528
230	0x3d9a34f4	0.07529631
231	0xbd46e478	-0.04855773
232	0x3c011da7	0.007880605
233	0xbbbd20f6	-0.0057717515
234	0xbd1605a7	-0.036626484
235	0xbd91ce02	-0.07119371
236	0x3db60fe5	0.088897504
237	0xba0e7764	-0.00054346607
238	0x3d29dc57	0.041469898
239	0xbdb1caa3	-0.08681228
240	0x3dd1812a	0.10229714
241	0xbc93b57a	-0.01803087
242	0x3d16b320	0.03679192
243	0x3d341203	0.04396249
244	0xbcd3f000	-0.025871277
245	0x3d756853	0.059913944
246	0xbd421999	-0.047387693
247	0x3dcd287d	0.10017488
248	0x3d51721c	0.051134214
249	0x3d7a44e7	0.061100867
250	0x3d1395d8	0.036031574
251	0xbdacf8f2	-0.0844592
252	0xbd4b1551	-0.049580876
253	0xbda2ec85	-0.07955269
254	0x3d84730e	0.064672574
255	0x3d40a0c8	0.047028333

bias f4 [100]
0	0xbdaeb675	-0.08530895
1	0x3c86e06c	0.016464435
2	0xbcc119f1	-0.02357194
3	0xbd2cdb0e	-0.042201094
4	0x39c7d546	0.0003811514
5	0x3d882b71	0.06648911
6	0xbda4506c	-0.08023152
7	0xbd8c7f95	-0.06860272
8	0x3d403858	0.046928734
9	0xbd432f6c	-0.047652647
10	0xbd784edb	-0.060622077
11	0x3d58c72d	0.052924324
12	0x3c8ba732	0.017047498
13	0x3d92d090	0.071686864
14	0xbd7472c0	-0.059679747
15	0x3c357253	0.01107462
16	0x3d38a097	0.045075025
17	0xbb578e2a	-0.0032891133
18	0xbd8c43d8	-0.06848878
19	0x3c846fcf	0.016166596
20	0x3da7776b	0.08177074
21	0xbd9c096a	-0.07618983
22	0xbc0d58f1	-0.008627162
23	0xbb15adb7	-0.0022839138
24	0x3d44cf7b	0.04804943
25	0x3d63ed94	0.055646494
26	0x3d358df2	0.044324823
27	0x3bca02e7	0.006164897
28	0xbdc92019	-0.09820575
29	0xbd28ef51	-0.041243855
30	0x3dcbd54c	0.099527925
31	0x3da1dbcc	0.07903251
32	0xbda31069	-0.07962114
33	0xbda2feec	-0.07958779
34	0x3d59686f	0.05307811
35	0x3d991d34	0.07476273
36	0x3d8121f5	0.06305305
37	0x3db3e900	0.087846756
38	0xbd078d10	-0.033093512
39	0xbdc9c9d7	-0.09852951
40	0x3da651b4	0.081210524
41	0xbdb9f638	-0.090801656
42	0x3c2158b3	0.009847808
43	0x3d945d16	0.07244317
44	0x3d5837a1	0.052787427
45	0x3cf180a5	0.029480288
46	0x3d6a570a	0.057211913
47	0xbda28352	-0.079352036
48	0x3d730116	0.059327208
49	0xbd5ad7c4	-0.053428426
50	0xbc8d4df9	-0.017249094
51	0xbd8988e1	-0.06715561
52	0xbc4f1031	-0.012638138
53	0xbd0cfdb1	-0.034421626
54	0x3d1d9f01	0.038481716
55	0x3c837eb9	0.016051637
56	0xbc613fcd	-0.013748121
57	0xbda476ad	-0.08030448
58	0xbd9e4703	-0.07728388
59	0xbd93bdad	-0.07213912
60	0xbdbdf5df	-0.09275412
61	0x3d3629fa	0.044473626
62	0x3d5e3c43	0.05425669
63	0x3d4fdf83	0.050750267
64	0xbdb4ec37	-0.08834117
65	0xbcfabd72	-0.030607913
66	0xbdb14a2c	-0.08656725
67	0x3c869146	0.016426694
68	0xbd9048b2	-0.070451155
69	0x3b946bf7	0.004529472
70	0xbdb0aba3	-0.08626487
71	0xbd8cccfc	-0.06875035
72	0x3da49df0	0.08037937
73	0x3d274803	0.04084016
74	0x3ddd4eea	0.10806067
75	0xbd3189b3	-0.04334421
76	0xbdb77515	-0.089578785
77	0x3db5eef4	0.08883467
78	0xbcfbb7e5	-0.030727336
79	0x3dae0243	0.08496525
80	0x3d9af4bb	0.0756621
81	0xbd45b70c	-0.04827027
82	0x3ddf607c	0.10907075
83	0xbd7db2e0	-0.061938167
84	0xbdb19ee6	-0.086728856
85	0x3d5b793c	0.053582415
86	0xbd5bf852	-0.053703614
87	0x3a31c884	0.00067818933
88	0x3dcbc6f0	0.09950054
89	0x3d8d8d7d	0.069117524
90	0x3db47f3b	0.0881333
91	0xbdced94e	-0.10100041
92	0xbcf0ed68	-0.02941008
93	0x3dc2d763	0.09513738
94	0xbd35c79d	-0.04437982
95	0xbbb942dd	-0.0056537227
96	0xbaf2cc4d	-0.0018524021
97	0xbda5efd8	-0.08102387
98	0xbc04dbc5	-0.008109038
99	0x3dacfdbe	0.08446835

weight f4 [73, 100]
0	0xbd39e703	-0.045386326
1	0xbd60e48d	-0.054905463
2	0xbd850eca	-0.064969614
3	0xbdd4b3cc	-0.10385856
4	0xbca5914f	-0.02021089
5	0x3d7ddb61	0.061976794
6	0xbcecd7f4	-0.028911568
7	0x3b62e2c1	0.003462002
8	0xbca004da	-0.019533563
9	0xbdbc2c26	-0.09188108
10	0xbe21f60f	-0.1581652
11	0x3db2eac9	0.08736188
12	0x3c511c6e	0.012763126
13	0x3d99f5fa	0.075176194
14	0xbcceb8d7	-0.025234623
15	0x3b95d447	0.0045724246
16	0x3cb4bcd3	0.022062695
17	0xbcf188d7	-0.029484196
18	0xbdd0dab7	-0.101979665
19	0xbd09d78f	-0.03365284
20	0xbdbdc0a3	-0.09265258
21	0x3da64fb8	0.08120674
22	0xbc65e432	-0.014031457
23	0xbd8d0485	-0.06885628
24	0x3d95a132	0.07306136
25	0x3d6a4e55	0.05720361
26	0xbde5264b	-0.111889444
27	0xbd2aeee0	-0.041731715
28	0x3db8773b	0.090071164
29	0x3c30ada7	0.010783589
30	0x3dc19451	0.09452117
31	0x3c5a266c	0.013314825
32	0xbd2022c2	-0.039095648
33	0xbd9ffa1b	-0.07811376
34	0xbc251e5d	-0.01007804
35	0x3dac2c38	0.084068716
36	0xbd049a3e	-0.03237366
37	0xbcb40b5f	-0.021978078
38	0xbce14461	-0.027498426
39	0x3c5fb519	0.013654017
40	0xbbcd30f7	-0.0062619406
41	0xbd688b6e	-0.056773596
42	0xbdb5e0d8	-0.08880776
43	0xbc8079a9	-0.015683012
44	0x3cbac87f	0.022800682
45	0xbcbb13ec	-0.022836648
46	0x3da95782	0.08268644
47	0x3d6a490d	0.057198573
48	0xbd04a35d	-0.032382358
49	0x3d171e9e	0.036894433
50	0x3dbd61bf	0.09247159
51	0x3c7c6125	0.01540402
52	0xbdb3193b	-0.08745047
53	0xbd5e2a2f	-0.05423945
54	0x3d0bf9ce	0.03417378
55	0xbd4d7928	-0.05016437
56	0xbd2b898a	-0.041879214
57	0xbb550e72	-0.003250983
58	0x3bbf3731	0.0058354368
59	0x3d829bdd	0.06377385
60	0x3d6439b0	0.055719078
61	0x3d34c2c1	0.044131044
62	0xbd819b75	-0.06328479
63	0x3d64a512	0.055821486
64	0xbdbb71fc	-0.091526
65	0x3cb8aa89	0.022542255
66	0xbd330395	-0.043704588
67	0x3d5e2cd0	0.054241955
68	0x3aaaa0d6	0.0013017904
69	0xbb28deed	-0.002576764
70	0xbd85ae57	-0.06527393
71	0xbcaead24	-0.021322794
72	0xbdb3977a	-0.08769126
73	0xbd242153	-0.040070843
74	0xbd2cbc91	-0.04217202
75	0x3d1d5800	0.038414
76	0x3c7012fb	0.014652963
77	0xbdd05ffd	-0.10174558
78	0xbd54ef54	-0.051986054
79	0x3dadff64	0.084959775
80	0x3d831858	0.064011276
81	0x3d62f4f6	0.055409394
82	0x3d944c29	0.07241089
83	0x3cf32776	0.029681902
84	0xbd00d5cb	-0.03145389
85	0xbdbc4f0f	-0.09194767
86	0x3c9bbfc3	0.019012338
87	0xbe3007ff	-0.1719055
88	0xbd0883cd	-0.03332882
89	0xbd728156	-0.059205376
90	0xbda2266e	-0.07917486
91	0xbdaee547	-0.08539825
92	0xbd293d25	-0.041318078
93	0x3cca864e	0.024722245
94	0xbdb57828	-0.088608086
95	0xbb8da7da	-0.004322988
96	0x3d0e5137	0.03474542
97	0x3d84ec49	0.0649038
98	0xbc2fb66b	-0.010724644
99	0xbd367f73	-0.04455514
100	0x3db0c3ed	0.0863112
101	0x3d83738b	0.064185224
102	0xbd3116d1	-0.04323465
103	0x3da1b697	0.078961544
104	0x3dbd964c	0.092571825
105	0xbd9cc46c	-0.07654652
106	0x3c8c4b9d	0.017125899
107	0x3cf191de	0.0294885
108	0xbc958788	-0.018253103
109	0xbda83e62	-0.082150236
110	0xbe025c92	-0.12730625
111	0x3dab2d2f	0.083582275
112	0x3b6c3951	0.0036044905
113	0xbda5be49	-0.08092935
114	0x3ce1d952	0.027569447
115	0xbcb3425c	-0.021882229
116	0x3dc5d7ff	0.096603386
117	0xbd12d51c	-0.03584777
118	0xbd85840d	-0.06519327
119	0xbd8eb433	-0.06967964
120	0x3c1758fd	0.009237525
121	0x3d9565fd	0.07294843
122	0xbd10e79f	-0.03537714
123	0xbda6a89f	-0.08137631
124	0xbd5c85a5	-0.05383839
125	0x3da6e31a	0.08148785
126	0xbdc79bef	-0.09746539
127	0xbd1d64aa	-0.03842608
128	0xbd897b5c	-0.06712982
129	0xbc0bd8b5	-0.008535554
130	0x3d717504	0.058949485
131	0xbddd68f4	-0.10811034
132	0x3d33deaf	0.04391354
133	0xbdd12881	-0.10212804
134	0x3c797eb4	0.015227962
135	0xbc3c80bd	-0.011505303
136	0x3b91fe99	0.0044553992
137	0xbd2beecb	-0.041975778
138	0xbd9cd952	-0.07658638
139	0xbdbc68d8	-0.09199685
140	0x3dbfd4a1	0.093667276
141	0x3d285b72	0.041102834
142	0xbcdd9c18	-0.02705197
143	0xbd083bb3	-0.03326006
144	0x3cab2dbb	0.02089583
145	0x3d905ae1	0.07048584
146	0xbd7bb108	-0.061448127
147	0x3c88e529	0.016710835
148	0x3d1b2c25	0.037883896
149	0x3d33cc76	0.04389616
150	0xbd95c10b	-0.07312211
151	0x3d92bfb3	0.0716547
152	0x3b0937ba	0.0020937757
153	0x3d8c732b	0.06857904
154	0xbdc4275b	-0.09577819
155	0x3d3d8139	0.046265814
156	0x3da7c012	0.081909314
157	0x3c001962	0.007818552
158	0xbd269c1f	-0.040676232
159	0xbd91f14d	-0.071261026
160	0x3d85a0a6	0.06524782
161	0xbd22e458	-0.039768547
162	0xbbcc66e7	-0.006237853
163	0xbd874316	-0.066045925
164	0xbd350eba	-0.044203497
165	0x3dad0bf4	0.084495455
166	0x3dc4082a	0.0957187
167	0x3b1e5d03	0.0024164326
168	0xbdb4a205	-0.08819965
169	0x3d6cf15f	0.057847377
170	0x3b8e910e	0.004350788
171	0xbdd706b5	-0.10499326
172	0x3c232977	0.009958616
173	0x3d027d14	0.031857565
174	0xbd0d2f01	-0.034468655
175	0x3d89a508	0.0672093
176	0xbd6fe56f	-0.058568414
177	0xbb888fd4	-0.0041675363
178	0x3d039c80	0.032131672
179	0x3d1522cb	0.036410134
180	0xbd359e13	-0.044340204
181	0xbd8f50be	-0.06997822
182	0x3cfbd6c9	0.030742066
183	0x3c312c97	0.010813854
184	0xbde7360f	-0.11289608
185	0x3d438d5f	0.047742244
186	0xbd641d50	-0.055692017
187	0xbd87a4ed	-0.06623254
188	0x3baaa780	0.005207956
189	0xbd4e2508	-0.050328285
190	0xbdb52f1d	-0.08846877
191	0xbca9fef0	-0.020751446
192	0x3cd5a8ff	0.02608156
193	0xbd5df77d	-0.0541911
194	0x3d6277bd	0.055289973
195	0x3da85428	0.082191765
196	0xbd17d63a	-0.037069537
197	0x3cc3e4e8	0.023912862
198	0xbd3474a7	-0.04405656
199	0xbd810c0f	-0.06301128
200	0xbd752349	-0.059848104
201	0x3d203f5b	0.03912292
202	0xbc2febb6	-0.01073735
203	0xbd81553a	-0.06315084
204	0x3da79b31	0.08183897
205	0xbdcfcf65	-0.10146979
206	0xbd4c5a86	-0.049891017
207	0x3da7d1d7	0.08194321
208	0x3d723a85	0.05913784
209	0xbdb71501	-0.08939553
210	0xbd8ef6dd	-0.06980679
211	0xbd241573	-0.040059518
212	0x3dc058fe	0.09391974
213	0xbda06781	-0.07832242
214	0x3d048428	0.032352597
215	0xbd271535	-0.04079171
216	0xbcd834b3	-0.026392316
217	0x3db491b1	0.08816851
218	0xbdc5d491	-0.096596844
219	0xbcc9b911	-0.02462438
220	0xbd9d28cd	-0.07673798
221	0x3d1e35f3	0.03862567
222	0x3d98d4ee	0.07462488
223	0x3cac01ad	0.020996893
224	0x3d82b6bc	0.0638251
225	0x3db99a6e	0.09062658
226	0x3d145147	0.036210325
227	0xbbc9a3b3	-0.0061535477
228	0x3d9f04ed	0.077646114
229	0xbd5cb75e	-0.05388581
230	0xbd81e0a4	-0.06341675
231	0x3be762ca	0.007061337
232	0x3d56ec90	0.052471697
233	0xbda06d4e	-0.07833348
234	0xbc30225d	-0.01075038
235	0x3dac1bda	0.0840375
236	0xbd2cc7ed	-0.04218285
237	0x3c3fc995	0.011705776
238	0x3d3a496f	0.045480188
239	0x3d5032bf	0.050829645
240	0xbcf9e553	-0.030504858
241	0xbd81fbf5	-0.06346885
242	0xbc7d23da	-0.015450442
243	0xbd0b9099	-0.034073446
244	0xbd225cf9	-0.039639447
245	0x3c24c9c6	0.010057872
246	0xbd9fdd3e	-0.078058705
247	0xbd6dbda0	-0.05804217
248	0x3d46e395	0.048556883
249	0x3d1062f2	0.03525061
250	0xbca53a9e	-0.020169552
251	0xbd4004fc	-0.046879753
252	0xbda60083	-0.08105566
253	0xbd6e39d9	-0.058160637
254	0xbd79b1ce	-0.060960583
255	0xbcabd406	-0.020975124

bias f4 [73]
0	0x3d8c86f3	0.06861677
1	0xbda82b9a	-0.08211441
2	0x3d2107f7	0.039314236
3	0x3d95a4a5	0.07306794
4	0x3d255cd5	0.040371735
5	0xbd9fe067	-0.07806473
6	0xbcb76734	-0.022388078
7	0x3d3662fb	0.04452799
8	0x3da32ecd	0.07967911
9	0xbdb3424e	-0.08752881
10	0x3d82c1db	0.06384631
11	0xbd81588a	-0.063157156
12	0x3d2b25f4	0.04178424
13	0xbce97e69	-0.02850266
14	0xbd764540	-0.060124636
15	0xbd016b5c	-0.031596527
16	0xbc515d96	-0.01277866
17	0x3cabadf2	0.020956967
18	0x3ce33dff	0.027739523
19	0x3d7bb111	0.06144816
20	0xbd7b0afe	-0.06128978
21	0x3bbf7f77	0.0058440524
22	0x3d4a4068	0.04937783
23	0x3cff1fee	0.031143155
24	0x3d1dfaf5	0.03856941
25	0x3d339337	0.043841567
26	0xbdc171c2	-0.09445526
27	0xbc97f50d	-0.018549467
28	0x3d037f59	0.03210387
29	0xbc805384	-0.015664823
30	0x3d0d2845	0.034462232
31	0x3d9a3583	0.07529738
32	0x3d60d802	0.0548935
33	0xbd6dfab6	-0.058100425
34	0x3af0832b	0.0018349638
35	0xbd0d4cab	-0.034496944
36	0xbd9dc214	-0.07703033
37	0x3d15e23e	0.036592714
38	0x3c567186	0.0130885895
39	0xbdded268	-0.108799756
40	0xbd225872	-0.03963513
41	0x3d698f02	0.05702115
42	0x3c45308f	0.012035503
43	0x3d1dc73d	0.038520087
44	0x3d5844a6	0.052799843
45	0x3cce5c9a	0.02519064
46	0x3b9df1c0	0.0048200786
47	0xbdbad0ef	-0.09121882
48	0x3c2c3f44	0.010513131
49	0xbd4d2512	-0.05008418
50	0xbcbe36aa	-0.023219425
51	0xbcbfb85f	-0.023403345
52	0xbd3ba294	-0.045809343
53	0xbd44abea	-0.048015513
54	0x3d9731d4	0.07382551
55	0x3d8ca24f	0.068668954
56	0x3d4253ef	0.047443327
57	0x3d99fcd6	0.07518928
58	0x3dcb297b	0.09920021
59	0xba5d1d98	-0.0008434891
60	0x3c9d43c4	0.019197352
61	0x3dc1d96d	0.09465299
62	0xbcdd910b	-0.027046701
63	0x3d8395f2	0.06425084
64	0xbda18076	-0.0788583
65	0x3de61d5f	0.11236071
66	0x3d73aab9	0.059488986
67	0xbdc46574	-0.09589663
68	0xbd47b40b	-0.048755687
69	0xbd09b0bb	-0.03361581
70	0xba9d9aee	-0.0012024322
71	0x3b3d4266	0.0028878688
72	0xbd97599a	-0.07390137
